GPTNeoModel(
  (wte): Embedding(50257, 2048)
  (wpe): Embedding(2048, 2048)
  (drop): Dropout(p=0.0, inplace=False)
  (h): ModuleList(
    (0-23): 24 x GPTNeoBlock(
      (ln_1): LayerNorm((2048,), eps=1e-05, elementwise_affine=True)
      (attn): GPTNeoAttention(
        (attention): GPTNeoSelfAttention(
          (attn_dropout): Dropout(p=0.0, inplace=False)
          (resid_dropout): Dropout(p=0.0, inplace=False)
          (k_proj): Linear(in_features=2048, out_features=2048, bias=False)
          (v_proj): Linear(in_features=2048, out_features=2048, bias=False)
          (q_proj): Linear(in_features=2048, out_features=2048, bias=False)
          (out_proj): Linear(in_features=2048, out_features=2048, bias=True)
        )
      )
      (ln_2): LayerNorm((2048,), eps=1e-05, elementwise_affine=True)
      (mlp): GPTNeoMLP(
        (c_fc): Linear(in_features=2048, out_features=8192, bias=True)
        (c_proj): Linear(in_features=8192, out_features=2048, bias=True)
        (act): NewGELUActivation()
        (dropout): Dropout(p=0.0, inplace=False)
      )
    )
  )
  (ln_f): LayerNorm((2048,), eps=1e-05, elementwise_affine=True)
)
